Model info:
SimVP_Model(
  (enc): Encoder(
    (enc): Sequential(
      (0): ConvSC(
        (conv): BasicConv2d(
          (conv): Conv2d(1, 32, kernel_size=(3, 3), stride=(1, 1), padding=(1, 1))
          (norm): GroupNorm(2, 32, eps=1e-05, affine=True)
          (act): SiLU()
        )
      )
      (1): ConvSC(
        (conv): BasicConv2d(
          (conv): Conv2d(32, 32, kernel_size=(3, 3), stride=(2, 2), padding=(1, 1))
          (norm): GroupNorm(2, 32, eps=1e-05, affine=True)
          (act): SiLU()
        )
      )
    )
  )
  (dec): Decoder(
    (dec): Sequential(
      (0): ConvSC(
        (conv): BasicConv2d(
          (conv): Sequential(
            (0): Conv2d(32, 128, kernel_size=(3, 3), stride=(1, 1), padding=(1, 1))
            (1): PixelShuffle(upscale_factor=2)
          )
          (norm): GroupNorm(2, 32, eps=1e-05, affine=True)
          (act): SiLU()
        )
      )
      (1): ConvSC(
        (conv): BasicConv2d(
          (conv): Conv2d(32, 32, kernel_size=(3, 3), stride=(1, 1), padding=(1, 1))
          (norm): GroupNorm(2, 32, eps=1e-05, affine=True)
          (act): SiLU()
        )
      )
    )
    (readout): Conv2d(32, 1, kernel_size=(1, 1), stride=(1, 1))
  )
  (hid): MidMetaNet(
    (enc): Sequential(
      (0): MetaBlock(
        (block): GASubBlock(
          (norm1): BatchNorm2d(384, eps=1e-05, momentum=0.1, affine=True, track_running_stats=True)
          (attn): SpatialAttention(
            (proj_1): Conv2d(384, 384, kernel_size=(1, 1), stride=(1, 1))
            (activation): GELU(approximate='none')
            (spatial_gating_unit): AttentionModule(
              (conv0): Conv2d(384, 384, kernel_size=(5, 5), stride=(1, 1), padding=(2, 2), groups=384)
              (conv_spatial): Conv2d(384, 384, kernel_size=(7, 7), stride=(1, 1), padding=(9, 9), dilation=(3, 3), groups=384)
              (conv1): Conv2d(384, 768, kernel_size=(1, 1), stride=(1, 1))
            )
            (proj_2): Conv2d(384, 384, kernel_size=(1, 1), stride=(1, 1))
          )
          (drop_path): DropPath(drop_prob=0.010)
          (norm2): BatchNorm2d(384, eps=1e-05, momentum=0.1, affine=True, track_running_stats=True)
          (mlp): MixMlp(
            (fc1): Conv2d(384, 3072, kernel_size=(1, 1), stride=(1, 1))
            (dwconv): DWConv(
              (dwconv): Conv2d(3072, 3072, kernel_size=(3, 3), stride=(1, 1), padding=(1, 1), groups=3072)
            )
            (act): GELU(approximate='none')
            (fc2): Conv2d(3072, 384, kernel_size=(1, 1), stride=(1, 1))
            (drop): Dropout(p=0.0, inplace=False)
          )
        )
        (reduction): Conv2d(384, 256, kernel_size=(1, 1), stride=(1, 1))
      )
      (1): MetaBlock(
        (block): GASubBlock(
          (norm1): BatchNorm2d(256, eps=1e-05, momentum=0.1, affine=True, track_running_stats=True)
          (attn): SpatialAttention(
            (proj_1): Conv2d(256, 256, kernel_size=(1, 1), stride=(1, 1))
            (activation): GELU(approximate='none')
            (spatial_gating_unit): AttentionModule(
              (conv0): Conv2d(256, 256, kernel_size=(5, 5), stride=(1, 1), padding=(2, 2), groups=256)
              (conv_spatial): Conv2d(256, 256, kernel_size=(7, 7), stride=(1, 1), padding=(9, 9), dilation=(3, 3), groups=256)
              (conv1): Conv2d(256, 512, kernel_size=(1, 1), stride=(1, 1))
            )
            (proj_2): Conv2d(256, 256, kernel_size=(1, 1), stride=(1, 1))
          )
          (drop_path): DropPath(drop_prob=0.023)
          (norm2): BatchNorm2d(256, eps=1e-05, momentum=0.1, affine=True, track_running_stats=True)
          (mlp): MixMlp(
            (fc1): Conv2d(256, 2048, kernel_size=(1, 1), stride=(1, 1))
            (dwconv): DWConv(
              (dwconv): Conv2d(2048, 2048, kernel_size=(3, 3), stride=(1, 1), padding=(1, 1), groups=2048)
            )
            (act): GELU(approximate='none')
            (fc2): Conv2d(2048, 256, kernel_size=(1, 1), stride=(1, 1))
            (drop): Dropout(p=0.0, inplace=False)
          )
        )
      )
      (2): MetaBlock(
        (block): GASubBlock(
          (norm1): BatchNorm2d(256, eps=1e-05, momentum=0.1, affine=True, track_running_stats=True)
          (attn): SpatialAttention(
            (proj_1): Conv2d(256, 256, kernel_size=(1, 1), stride=(1, 1))
            (activation): GELU(approximate='none')
            (spatial_gating_unit): AttentionModule(
              (conv0): Conv2d(256, 256, kernel_size=(5, 5), stride=(1, 1), padding=(2, 2), groups=256)
              (conv_spatial): Conv2d(256, 256, kernel_size=(7, 7), stride=(1, 1), padding=(9, 9), dilation=(3, 3), groups=256)
              (conv1): Conv2d(256, 512, kernel_size=(1, 1), stride=(1, 1))
            )
            (proj_2): Conv2d(256, 256, kernel_size=(1, 1), stride=(1, 1))
          )
          (drop_path): DropPath(drop_prob=0.036)
          (norm2): BatchNorm2d(256, eps=1e-05, momentum=0.1, affine=True, track_running_stats=True)
          (mlp): MixMlp(
            (fc1): Conv2d(256, 2048, kernel_size=(1, 1), stride=(1, 1))
            (dwconv): DWConv(
              (dwconv): Conv2d(2048, 2048, kernel_size=(3, 3), stride=(1, 1), padding=(1, 1), groups=2048)
            )
            (act): GELU(approximate='none')
            (fc2): Conv2d(2048, 256, kernel_size=(1, 1), stride=(1, 1))
            (drop): Dropout(p=0.0, inplace=False)
          )
        )
      )
      (3): MetaBlock(
        (block): GASubBlock(
          (norm1): BatchNorm2d(256, eps=1e-05, momentum=0.1, affine=True, track_running_stats=True)
          (attn): SpatialAttention(
            (proj_1): Conv2d(256, 256, kernel_size=(1, 1), stride=(1, 1))
            (activation): GELU(approximate='none')
            (spatial_gating_unit): AttentionModule(
              (conv0): Conv2d(256, 256, kernel_size=(5, 5), stride=(1, 1), padding=(2, 2), groups=256)
              (conv_spatial): Conv2d(256, 256, kernel_size=(7, 7), stride=(1, 1), padding=(9, 9), dilation=(3, 3), groups=256)
              (conv1): Conv2d(256, 512, kernel_size=(1, 1), stride=(1, 1))
            )
            (proj_2): Conv2d(256, 256, kernel_size=(1, 1), stride=(1, 1))
          )
          (drop_path): DropPath(drop_prob=0.049)
          (norm2): BatchNorm2d(256, eps=1e-05, momentum=0.1, affine=True, track_running_stats=True)
          (mlp): MixMlp(
            (fc1): Conv2d(256, 2048, kernel_size=(1, 1), stride=(1, 1))
            (dwconv): DWConv(
              (dwconv): Conv2d(2048, 2048, kernel_size=(3, 3), stride=(1, 1), padding=(1, 1), groups=2048)
            )
            (act): GELU(approximate='none')
            (fc2): Conv2d(2048, 256, kernel_size=(1, 1), stride=(1, 1))
            (drop): Dropout(p=0.0, inplace=False)
          )
        )
      )
      (4): MetaBlock(
        (block): GASubBlock(
          (norm1): BatchNorm2d(256, eps=1e-05, momentum=0.1, affine=True, track_running_stats=True)
          (attn): SpatialAttention(
            (proj_1): Conv2d(256, 256, kernel_size=(1, 1), stride=(1, 1))
            (activation): GELU(approximate='none')
            (spatial_gating_unit): AttentionModule(
              (conv0): Conv2d(256, 256, kernel_size=(5, 5), stride=(1, 1), padding=(2, 2), groups=256)
              (conv_spatial): Conv2d(256, 256, kernel_size=(7, 7), stride=(1, 1), padding=(9, 9), dilation=(3, 3), groups=256)
              (conv1): Conv2d(256, 512, kernel_size=(1, 1), stride=(1, 1))
            )
            (proj_2): Conv2d(256, 256, kernel_size=(1, 1), stride=(1, 1))
          )
          (drop_path): DropPath(drop_prob=0.061)
          (norm2): BatchNorm2d(256, eps=1e-05, momentum=0.1, affine=True, track_running_stats=True)
          (mlp): MixMlp(
            (fc1): Conv2d(256, 2048, kernel_size=(1, 1), stride=(1, 1))
            (dwconv): DWConv(
              (dwconv): Conv2d(2048, 2048, kernel_size=(3, 3), stride=(1, 1), padding=(1, 1), groups=2048)
            )
            (act): GELU(approximate='none')
            (fc2): Conv2d(2048, 256, kernel_size=(1, 1), stride=(1, 1))
            (drop): Dropout(p=0.0, inplace=False)
          )
        )
      )
      (5): MetaBlock(
        (block): GASubBlock(
          (norm1): BatchNorm2d(256, eps=1e-05, momentum=0.1, affine=True, track_running_stats=True)
          (attn): SpatialAttention(
            (proj_1): Conv2d(256, 256, kernel_size=(1, 1), stride=(1, 1))
            (activation): GELU(approximate='none')
            (spatial_gating_unit): AttentionModule(
              (conv0): Conv2d(256, 256, kernel_size=(5, 5), stride=(1, 1), padding=(2, 2), groups=256)
              (conv_spatial): Conv2d(256, 256, kernel_size=(7, 7), stride=(1, 1), padding=(9, 9), dilation=(3, 3), groups=256)
              (conv1): Conv2d(256, 512, kernel_size=(1, 1), stride=(1, 1))
            )
            (proj_2): Conv2d(256, 256, kernel_size=(1, 1), stride=(1, 1))
          )
          (drop_path): DropPath(drop_prob=0.074)
          (norm2): BatchNorm2d(256, eps=1e-05, momentum=0.1, affine=True, track_running_stats=True)
          (mlp): MixMlp(
            (fc1): Conv2d(256, 2048, kernel_size=(1, 1), stride=(1, 1))
            (dwconv): DWConv(
              (dwconv): Conv2d(2048, 2048, kernel_size=(3, 3), stride=(1, 1), padding=(1, 1), groups=2048)
            )
            (act): GELU(approximate='none')
            (fc2): Conv2d(2048, 256, kernel_size=(1, 1), stride=(1, 1))
            (drop): Dropout(p=0.0, inplace=False)
          )
        )
      )
      (6): MetaBlock(
        (block): GASubBlock(
          (norm1): BatchNorm2d(256, eps=1e-05, momentum=0.1, affine=True, track_running_stats=True)
          (attn): SpatialAttention(
            (proj_1): Conv2d(256, 256, kernel_size=(1, 1), stride=(1, 1))
            (activation): GELU(approximate='none')
            (spatial_gating_unit): AttentionModule(
              (conv0): Conv2d(256, 256, kernel_size=(5, 5), stride=(1, 1), padding=(2, 2), groups=256)
              (conv_spatial): Conv2d(256, 256, kernel_size=(7, 7), stride=(1, 1), padding=(9, 9), dilation=(3, 3), groups=256)
              (conv1): Conv2d(256, 512, kernel_size=(1, 1), stride=(1, 1))
            )
            (proj_2): Conv2d(256, 256, kernel_size=(1, 1), stride=(1, 1))
          )
          (drop_path): DropPath(drop_prob=0.087)
          (norm2): BatchNorm2d(256, eps=1e-05, momentum=0.1, affine=True, track_running_stats=True)
          (mlp): MixMlp(
            (fc1): Conv2d(256, 2048, kernel_size=(1, 1), stride=(1, 1))
            (dwconv): DWConv(
              (dwconv): Conv2d(2048, 2048, kernel_size=(3, 3), stride=(1, 1), padding=(1, 1), groups=2048)
            )
            (act): GELU(approximate='none')
            (fc2): Conv2d(2048, 256, kernel_size=(1, 1), stride=(1, 1))
            (drop): Dropout(p=0.0, inplace=False)
          )
        )
      )
      (7): MetaBlock(
        (block): GASubBlock(
          (norm1): BatchNorm2d(256, eps=1e-05, momentum=0.1, affine=True, track_running_stats=True)
          (attn): SpatialAttention(
            (proj_1): Conv2d(256, 256, kernel_size=(1, 1), stride=(1, 1))
            (activation): GELU(approximate='none')
            (spatial_gating_unit): AttentionModule(
              (conv0): Conv2d(256, 256, kernel_size=(5, 5), stride=(1, 1), padding=(2, 2), groups=256)
              (conv_spatial): Conv2d(256, 256, kernel_size=(7, 7), stride=(1, 1), padding=(9, 9), dilation=(3, 3), groups=256)
              (conv1): Conv2d(256, 512, kernel_size=(1, 1), stride=(1, 1))
            )
            (proj_2): Conv2d(256, 256, kernel_size=(1, 1), stride=(1, 1))
          )
          (drop_path): DropPath(drop_prob=0.100)
          (norm2): BatchNorm2d(256, eps=1e-05, momentum=0.1, affine=True, track_running_stats=True)
          (mlp): MixMlp(
            (fc1): Conv2d(256, 2048, kernel_size=(1, 1), stride=(1, 1))
            (dwconv): DWConv(
              (dwconv): Conv2d(2048, 2048, kernel_size=(3, 3), stride=(1, 1), padding=(1, 1), groups=2048)
            )
            (act): GELU(approximate='none')
            (fc2): Conv2d(2048, 256, kernel_size=(1, 1), stride=(1, 1))
            (drop): Dropout(p=0.0, inplace=False)
          )
        )
        (reduction): Conv2d(256, 384, kernel_size=(1, 1), stride=(1, 1))
      )
    )
  )
)
| module                           | #parameters or shape   | #flops     |
|:---------------------------------|:-----------------------|:-----------|
| model                            | 12.758M                | 7.012G     |
|  enc.enc                         |  9.696K                |  68.616M   |
|   enc.enc.0.conv                 |   0.384K               |   11.01M   |
…
