Model info:
MIM_Model(
  (MSE_criterion): MSELoss()
  (stlstm_layer): ModuleList(
    (0): SpatioTemporalLSTMCell(
      (conv_x): Sequential(
        (0): Conv2d(16, 896, kernel_size=(5, 5), stride=(1, 1), padding=(2, 2), bias=False)
      )
      (conv_h): Sequential(
        (0): Conv2d(128, 512, kernel_size=(5, 5), stride=(1, 1), padding=(2, 2), bias=False)
      )
      (conv_m): Sequential(
        (0): Conv2d(128, 384, kernel_size=(5, 5), stride=(1, 1), padding=(2, 2), bias=False)
      )
      (conv_o): Sequential(
        (0): Conv2d(256, 128, kernel_size=(5, 5), stride=(1, 1), padding=(2, 2), bias=False)
      )
      (conv_last): Conv2d(256, 128, kernel_size=(1, 1), stride=(1, 1), bias=False)
    )
    (1-3): 3 x MIMBlock(
      (conv_t_cc): Sequential(
        (0): Conv2d(128, 384, kernel_size=(5, 5), stride=(1, 1), padding=(2, 2), bias=False)
      )
      (conv_s_cc): Sequential(
        (0): Conv2d(128, 512, kernel_size=(5, 5), stride=(1, 1), padding=(2, 2), bias=False)
      )
      (conv_x_cc): Sequential(
        (0): Conv2d(128, 512, kernel_size=(5, 5), stride=(1, 1), padding=(2, 2), bias=False)
      )
      (conv_h_concat): Sequential(
        (0): Conv2d(128, 512, kernel_size=(5, 5), stride=(1, 1), padding=(2, 2), bias=False)
      )
      (conv_x_concat): Sequential(
        (0): Conv2d(128, 512, kernel_size=(5, 5), stride=(1, 1), padding=(2, 2), bias=False)
      )
      (conv_last): Conv2d(256, 128, kernel_size=(1, 1), stride=(1, 1), bias=False)
    )
  )
  (stlstm_layer_diff): ModuleList(
    (0-2): 3 x MIMN(
      (conv_h_concat): Sequential(
        (0): Conv2d(128, 512, kernel_size=(5, 5), stride=(1, 1), padding=(2, 2), bias=False)
      )
      (conv_x_concat): Sequential(
        (0): Conv2d(128, 512, kernel_size=(5, 5), stride=(1, 1), padding=(2, 2), bias=False)
      )
      (conv_last): Conv2d(256, 128, kernel_size=(1, 1), stride=(1, 1), bias=False)
    )
  )
  (conv_last): Conv2d(128, 16, kernel_size=(1, 1), stride=(1, 1), bias=False)
)
| module                                 | #parameters or shape   | #flops     |
|:---------------------------------------|:-----------------------|:-----------|
| model                                  | 37.749M                | 0.109T     |
|  stlstm_layer                          |  27.671M               |  81.028G   |
|   stlstm_layer.0                       |   4.078M               |   12.004G  |
…
