Model info:
PhyDNet_Model(
  (phycell): PhyCell(
    (cell_list): ModuleList(
      (0): PhyCell_Cell(
        (F): Sequential(
          (conv1): Conv2d(64, 49, kernel_size=(7, 7), stride=(1, 1), padding=(3, 3))
          (bn1): GroupNorm(7, 49, eps=1e-05, affine=True)
          (conv2): Conv2d(49, 64, kernel_size=(1, 1), stride=(1, 1))
        )
        (convgate): Conv2d(128, 64, kernel_size=(3, 3), stride=(1, 1), padding=(1, 1))
      )
    )
  )
  (convcell): PhyD_ConvLSTM(
    (cell_list): ModuleList(
      (0): PhyD_ConvLSTM_Cell(
        (conv): Conv2d(192, 512, kernel_size=(3, 3), stride=(1, 1), padding=(1, 1))
      )
      (1): PhyD_ConvLSTM_Cell(
        (conv): Conv2d(256, 512, kernel_size=(3, 3), stride=(1, 1), padding=(1, 1))
      )
      (2): PhyD_ConvLSTM_Cell(
        (conv): Conv2d(192, 256, kernel_size=(3, 3), stride=(1, 1), padding=(1, 1))
      )
    )
  )
  (encoder): PhyD_EncoderRNN(
    (encoder_E): encoder_E(
      (c1): dcgan_conv(
        (main): Sequential(
          (0): Conv2d(1, 32, kernel_size=(3, 3), stride=(2, 2), padding=(1, 1))
          (1): GroupNorm(16, 32, eps=1e-05, affine=True)
          (2): LeakyReLU(negative_slope=0.2, inplace=True)
        )
      )
      (c2): dcgan_conv(
        (main): Sequential(
          (0): Conv2d(32, 32, kernel_size=(3, 3), stride=(1, 1), padding=(1, 1))
          (1): GroupNorm(16, 32, eps=1e-05, affine=True)
          (2): LeakyReLU(negative_slope=0.2, inplace=True)
        )
      )
      (c3): dcgan_conv(
        (main): Sequential(
          (0): Conv2d(32, 64, kernel_size=(3, 3), stride=(1, 1), padding=(1, 1))
          (1): GroupNorm(16, 64, eps=1e-05, affine=True)
          (2): LeakyReLU(negative_slope=0.2, inplace=True)
        )
      )
    )
    (encoder_Ep): encoder_specific(
      (c1): dcgan_conv(
        (main): Sequential(
          (0): Conv2d(64, 64, kernel_size=(3, 3), stride=(1, 1), padding=(1, 1))
          (1): GroupNorm(16, 64, eps=1e-05, affine=True)
          (2): LeakyReLU(negative_slope=0.2, inplace=True)
        )
      )
      (c2): dcgan_conv(
        (main): Sequential(
          (0): Conv2d(64, 64, kernel_size=(3, 3), stride=(1, 1), padding=(1, 1))
          (1): GroupNorm(16, 64, eps=1e-05, affine=True)
          (2): LeakyReLU(negative_slope=0.2, inplace=True)
        )
      )
    )
    (encoder_Er): encoder_specific(
      (c1): dcgan_conv(
        (main): Sequential(
          (0): Conv2d(64, 64, kernel_size=(3, 3), stride=(1, 1), padding=(1, 1))
          (1): GroupNorm(16, 64, eps=1e-05, affine=True)
          (2): LeakyReLU(negative_slope=0.2, inplace=True)
        )
      )
      (c2): dcgan_conv(
        (main): Sequential(
          (0): Conv2d(64, 64, kernel_size=(3, 3), stride=(1, 1), padding=(1, 1))
          (1): GroupNorm(16, 64, eps=1e-05, affine=True)
          (2): LeakyReLU(negative_slope=0.2, inplace=True)
        )
      )
    )
    (decoder_Dp): decoder_specific(
      (upc1): dcgan_upconv(
        (main): Sequential(
          (0): ConvTranspose2d(64, 64, kernel_size=(3, 3), stride=(1, 1), padding=(1, 1))
          (1): GroupNorm(16, 64, eps=1e-05, affine=True)
          (2): LeakyReLU(negative_slope=0.2, inplace=True)
        )
      )
      (upc2): dcgan_upconv(
        (main): Sequential(
          (0): ConvTranspose2d(64, 64, kernel_size=(3, 3), stride=(1, 1), padding=(1, 1))
          (1): GroupNorm(16, 64, eps=1e-05, affine=True)
          (2): LeakyReLU(negative_slope=0.2, inplace=True)
        )
      )
    )
    (decoder_Dr): decoder_specific(
      (upc1): dcgan_upconv(
        (main): Sequential(
          (0): ConvTranspose2d(64, 64, kernel_size=(3, 3), stride=(1, 1), padding=(1, 1))
          (1): GroupNorm(16, 64, eps=1e-05, affine=True)
          (2): LeakyReLU(negative_slope=0.2, inplace=True)
        )
      )
      (upc2): dcgan_upconv(
        (main): Sequential(
          (0): ConvTranspose2d(64, 64, kernel_size=(3, 3), stride=(1, 1), padding=(1, 1))
          (1): GroupNorm(16, 64, eps=1e-05, affine=True)
          (2): LeakyReLU(negative_slope=0.2, inplace=True)
        )
      )
    )
    (decoder_D): decoder_D(
      (upc1): dcgan_upconv(
        (main): Sequential(
          (0): ConvTranspose2d(64, 32, kernel_size=(3, 3), stride=(2, 2), padding=(1, 1), output_padding=(1, 1))
          (1): GroupNorm(16, 32, eps=1e-05, affine=True)
          (2): LeakyReLU(negative_slope=0.2, inplace=True)
        )
      )
      (upc2): dcgan_upconv(
        (main): Sequential(
          (0): ConvTranspose2d(32, 32, kernel_size=(3, 3), stride=(1, 1), padding=(1, 1))
          (1): GroupNorm(16, 32, eps=1e-05, affine=True)
          (2): LeakyReLU(negative_slope=0.2, inplace=True)
        )
      )
      (upc3): ConvTranspose2d(32, 1, kernel_size=(3, 3), stride=(1, 1), padding=(1, 1))
    )
    (phycell): PhyCell(
      (cell_list): ModuleList(
        (0): PhyCell_Cell(
          (F): Sequential(
            (conv1): Conv2d(64, 49, kernel_size=(7, 7), stride=(1, 1), padding=(3, 3))
            (bn1): GroupNorm(7, 49, eps=1e-05, affine=True)
            (conv2): Conv2d(49, 64, kernel_size=(1, 1), stride=(1, 1))
          )
          (convgate): Conv2d(128, 64, kernel_size=(3, 3), stride=(1, 1), padding=(1, 1))
        )
      )
    )
    (convcell): PhyD_ConvLSTM(
      (cell_list): ModuleList(
        (0): PhyD_ConvLSTM_Cell(
          (conv): Conv2d(192, 512, kernel_size=(3, 3), stride=(1, 1), padding=(1, 1))
        )
        (1): PhyD_ConvLSTM_Cell(
          (conv): Conv2d(256, 512, kernel_size=(3, 3), stride=(1, 1), padding=(1, 1))
        )
        (2): PhyD_ConvLSTM_Cell(
          (conv): Conv2d(192, 256, kernel_size=(3, 3), stride=(1, 1), padding=(1, 1))
        )
      )
    )
  )
  (k2m): K2M()
  (criterion): MSELoss()
)
| module                                 | #parameters or shape   | #flops     |
|:---------------------------------------|:-----------------------|:-----------|
| model                                  | 3.092M                 | 36.759G    |
|  phycell.cell_list.0                   |  0.231M                |  2.718G    |
…
