Model info:
PredRNNpp_Model(
  (MSE_criterion): MSELoss()
  (gradient_highway): GHU(
    (z_concat): Sequential(
      (0): Conv2d(128, 256, kernel_size=(5, 5), stride=(1, 1), padding=(2, 2), bias=False)
    )
    (x_concat): Sequential(
      (0): Conv2d(128, 256, kernel_size=(5, 5), stride=(1, 1), padding=(2, 2), bias=False)
    )
  )
  (cell_list): ModuleList(
    (0): CausalLSTMCell(
      (conv_x): Sequential(
        (0): Conv2d(4, 896, kernel_size=(5, 5), stride=(1, 1), padding=(2, 2), bias=False)
      )
      (conv_h): Sequential(
        (0): Conv2d(128, 512, kernel_size=(5, 5), stride=(1, 1), padding=(2, 2), bias=False)
      )
      (conv_c): Sequential(
        (0): Conv2d(128, 384, kernel_size=(5, 5), stride=(1, 1), padding=(2, 2), bias=False)
      )
      (conv_m): Sequential(
        (0): Conv2d(128, 384, kernel_size=(5, 5), stride=(1, 1), padding=(2, 2), bias=False)
      )
      (conv_o): Sequential(
        (0): Conv2d(256, 128, kernel_size=(5, 5), stride=(1, 1), padding=(2, 2), bias=False)
      )
      (conv_c2m): Sequential(
        (0): Conv2d(128, 512, kernel_size=(5, 5), stride=(1, 1), padding=(2, 2), bias=False)
      )
      (conv_om): Sequential(
        (0): Conv2d(128, 128, kernel_size=(5, 5), stride=(1, 1), padding=(2, 2), bias=False)
      )
      (conv_last): Conv2d(256, 128, kernel_size=(1, 1), stride=(1, 1), bias=False)
    )
    (1-3): 3 x CausalLSTMCell(
      (conv_x): Sequential(
        (0): Conv2d(128, 896, kernel_size=(5, 5), stride=(1, 1), padding=(2, 2), bias=False)
      )
      (conv_h): Sequential(
        (0): Conv2d(128, 512, kernel_size=(5, 5), stride=(1, 1), padding=(2, 2), bias=False)
      )
      (conv_c): Sequential(
        (0): Conv2d(128, 384, kernel_size=(5, 5), stride=(1, 1), padding=(2, 2), bias=False)
      )
      (conv_m): Sequential(
        (0): Conv2d(128, 384, kernel_size=(5, 5), stride=(1, 1), padding=(2, 2), bias=False)
      )
      (conv_o): Sequential(
        (0): Conv2d(256, 128, kernel_size=(5, 5), stride=(1, 1), padding=(2, 2), bias=False)
      )
      (conv_c2m): Sequential(
        (0): Conv2d(128, 512, kernel_size=(5, 5), stride=(1, 1), padding=(2, 2), bias=False)
      )
      (conv_om): Sequential(
        (0): Conv2d(128, 128, kernel_size=(5, 5), stride=(1, 1), padding=(2, 2), bias=False)
      )
      (conv_last): Conv2d(256, 128, kernel_size=(1, 1), stride=(1, 1), bias=False)
    )
  )
  (conv_last): Conv2d(128, 4, kernel_size=(1, 1), stride=(1, 1), bias=False)
)
| module                                | #parameters or shape   | #flops     |
|:--------------------------------------|:-----------------------|:-----------|
| model                                 | 38.314M                | 0.413T     |
|  gradient_highway                     |  1.638M                |  19.294G   |
|   gradient_highway.z_concat.0         |   0.819M               |   9.647G   |
…
