Model info:
PredRNN_Model(
  (MSE_criterion): MSELoss()
  (cell_list): ModuleList(
    (0): SpatioTemporalLSTMCell(
      (conv_x): Sequential(
        (0): Conv2d(4, 896, kernel_size=(5, 5), stride=(1, 1), padding=(2, 2), bias=False)
      )
      (conv_h): Sequential(
        (0): Conv2d(128, 512, kernel_size=(5, 5), stride=(1, 1), padding=(2, 2), bias=False)
      )
      (conv_m): Sequential(
        (0): Conv2d(128, 384, kernel_size=(5, 5), stride=(1, 1), padding=(2, 2), bias=False)
      )
      (conv_o): Sequential(
        (0): Conv2d(256, 128, kernel_size=(5, 5), stride=(1, 1), padding=(2, 2), bias=False)
      )
      (conv_last): Conv2d(256, 128, kernel_size=(1, 1), stride=(1, 1), bias=False)
    )
    (1-3): 3 x SpatioTemporalLSTMCell(
      (conv_x): Sequential(
        (0): Conv2d(128, 896, kernel_size=(5, 5), stride=(1, 1), padding=(2, 2), bias=False)
      )
      (conv_h): Sequential(
        (0): Conv2d(128, 512, kernel_size=(5, 5), stride=(1, 1), padding=(2, 2), bias=False)
      )
      (conv_m): Sequential(
        (0): Conv2d(128, 384, kernel_size=(5, 5), stride=(1, 1), padding=(2, 2), bias=False)
      )
      (conv_o): Sequential(
        (0): Conv2d(256, 128, kernel_size=(5, 5), stride=(1, 1), padding=(2, 2), bias=False)
      )
      (conv_last): Conv2d(256, 128, kernel_size=(1, 1), stride=(1, 1), bias=False)
    )
  )
  (conv_last): Conv2d(128, 4, kernel_size=(1, 1), stride=(1, 1), bias=False)
)
| module                   | #parameters or shape   | #flops     |
|:-------------------------|:-----------------------|:-----------|
| model                    | 23.568M                | 0.278T     |
|  cell_list               |  23.568M               |  0.278T    |
|   cell_list.0            |   3.809M               |   44.852G  |
|    cell_list.0.conv_x.0  |    89.6K               |    1.055G  |
…
