Model info:
SimVP_Model(
  (enc): Encoder(
    (enc): Sequential(
      (0): ConvSC(
        (conv): BasicConv2d(
          (conv): Conv2d(1, 32, kernel_size=(3, 3), stride=(1, 1), padding=(1, 1))
          (norm): GroupNorm(2, 32, eps=1e-05, affine=True)
          (act): SiLU()
        )
      )
      (1): ConvSC(
        (conv): BasicConv2d(
          (conv): Conv2d(32, 32, kernel_size=(3, 3), stride=(2, 2), padding=(1, 1))
          (norm): GroupNorm(2, 32, eps=1e-05, affine=True)
          (act): SiLU()
        )
      )
    )
  )
  (dec): Decoder(
    (dec): Sequential(
      (0): ConvSC(
        (conv): BasicConv2d(
          (conv): Sequential(
            (0): Conv2d(32, 128, kernel_size=(3, 3), stride=(1, 1), padding=(1, 1))
            (1): PixelShuffle(upscale_factor=2)
          )
          (norm): GroupNorm(2, 32, eps=1e-05, affine=True)
          (act): SiLU()
        )
      )
      (1): ConvSC(
        (conv): BasicConv2d(
          (conv): Conv2d(32, 32, kernel_size=(3, 3), stride=(1, 1), padding=(1, 1))
          (norm): GroupNorm(2, 32, eps=1e-05, affine=True)
          (act): SiLU()
        )
      )
    )
    (readout): Conv2d(32, 1, kernel_size=(1, 1), stride=(1, 1))
  )
  (hid): MidIncepNet(
    (enc): Sequential(
      (0): gInception_ST(
        (conv1): Conv2d(384, 128, kernel_size=(1, 1), stride=(1, 1))
        (layers): Sequential(
          (0): GroupConv2d(
            (conv): Conv2d(128, 256, kernel_size=(3, 3), stride=(1, 1), padding=(1, 1), groups=8)
            (norm): GroupNorm(8, 256, eps=1e-05, affine=True)
            (activate): LeakyReLU(negative_slope=0.2, inplace=True)
          )
          (1): GroupConv2d(
            (conv): Conv2d(128, 256, kernel_size=(5, 5), stride=(1, 1), padding=(2, 2), groups=8)
            (norm): GroupNorm(8, 256, eps=1e-05, affine=True)
            (activate): LeakyReLU(negative_slope=0.2, inplace=True)
          )
          (2): GroupConv2d(
            (conv): Conv2d(128, 256, kernel_size=(7, 7), stride=(1, 1), padding=(3, 3), groups=8)
            (norm): GroupNorm(8, 256, eps=1e-05, affine=True)
            (activate): LeakyReLU(negative_slope=0.2, inplace=True)
          )
          (3): GroupConv2d(
            (conv): Conv2d(128, 256, kernel_size=(11, 11), stride=(1, 1), padding=(5, 5), groups=8)
            (norm): GroupNorm(8, 256, eps=1e-05, affine=True)
            (activate): LeakyReLU(negative_slope=0.2, inplace=True)
          )
        )
      )
      (1): gInception_ST(
        (conv1): Conv2d(256, 128, kernel_size=(1, 1), stride=(1, 1))
        (layers): Sequential(
          (0): GroupConv2d(
            (conv): Conv2d(128, 256, kernel_size=(3, 3), stride=(1, 1), padding=(1, 1), groups=8)
            (norm): GroupNorm(8, 256, eps=1e-05, affine=True)
            (activate): LeakyReLU(negative_slope=0.2, inplace=True)
          )
          (1): GroupConv2d(
            (conv): Conv2d(128, 256, kernel_size=(5, 5), stride=(1, 1), padding=(2, 2), groups=8)
            (norm): GroupNorm(8, 256, eps=1e-05, affine=True)
            (activate): LeakyReLU(negative_slope=0.2, inplace=True)
          )
          (2): GroupConv2d(
            (conv): Conv2d(128, 256, kernel_size=(7, 7), stride=(1, 1), padding=(3, 3), groups=8)
            (norm): GroupNorm(8, 256, eps=1e-05, affine=True)
            (activate): LeakyReLU(negative_slope=0.2, inplace=True)
          )
          (3): GroupConv2d(
            (conv): Conv2d(128, 256, kernel_size=(11, 11), stride=(1, 1), padding=(5, 5), groups=8)
            (norm): GroupNorm(8, 256, eps=1e-05, affine=True)
            (activate): LeakyReLU(negative_slope=0.2, inplace=True)
          )
        )
      )
      (2): gInception_ST(
        (conv1): Conv2d(256, 128, kernel_size=(1, 1), stride=(1, 1))
        (layers): Sequential(
          (0): GroupConv2d(
            (conv): Conv2d(128, 256, kernel_size=(3, 3), stride=(1, 1), padding=(1, 1), groups=8)
            (norm): GroupNorm(8, 256, eps=1e-05, affine=True)
            (activate): LeakyReLU(negative_slope=0.2, inplace=True)
          )
          (1): GroupConv2d(
            (conv): Conv2d(128, 256, kernel_size=(5, 5), stride=(1, 1), padding=(2, 2), groups=8)
            (norm): GroupNorm(8, 256, eps=1e-05, affine=True)
            (activate): LeakyReLU(negative_slope=0.2, inplace=True)
          )
          (2): GroupConv2d(
            (conv): Conv2d(128, 256, kernel_size=(7, 7), stride=(1, 1), padding=(3, 3), groups=8)
            (norm): GroupNorm(8, 256, eps=1e-05, affine=True)
            (activate): LeakyReLU(negative_slope=0.2, inplace=True)
          )
          (3): GroupConv2d(
            (conv): Conv2d(128, 256, kernel_size=(11, 11), stride=(1, 1), padding=(5, 5), groups=8)
            (norm): GroupNorm(8, 256, eps=1e-05, affine=True)
            (activate): LeakyReLU(negative_slope=0.2, inplace=True)
          )
        )
      )
      (3): gInception_ST(
        (conv1): Conv2d(256, 128, kernel_size=(1, 1), stride=(1, 1))
        (layers): Sequential(
          (0): GroupConv2d(
            (conv): Conv2d(128, 256, kernel_size=(3, 3), stride=(1, 1), padding=(1, 1), groups=8)
            (norm): GroupNorm(8, 256, eps=1e-05, affine=True)
            (activate): LeakyReLU(negative_slope=0.2, inplace=True)
          )
          (1): GroupConv2d(
            (conv): Conv2d(128, 256, kernel_size=(5, 5), stride=(1, 1), padding=(2, 2), groups=8)
            (norm): GroupNorm(8, 256, eps=1e-05, affine=True)
            (activate): LeakyReLU(negative_slope=0.2, inplace=True)
          )
          (2): GroupConv2d(
            (conv): Conv2d(128, 256, kernel_size=(7, 7), stride=(1, 1), padding=(3, 3), groups=8)
            (norm): GroupNorm(8, 256, eps=1e-05, affine=True)
            (activate): LeakyReLU(negative_slope=0.2, inplace=True)
          )
          (3): GroupConv2d(
            (conv): Conv2d(128, 256, kernel_size=(11, 11), stride=(1, 1), padding=(5, 5), groups=8)
            (norm): GroupNorm(8, 256, eps=1e-05, affine=True)
            (activate): LeakyReLU(negative_slope=0.2, inplace=True)
          )
        )
      )
      (4): gInception_ST(
        (conv1): Conv2d(256, 128, kernel_size=(1, 1), stride=(1, 1))
        (layers): Sequential(
          (0): GroupConv2d(
            (conv): Conv2d(128, 256, kernel_size=(3, 3), stride=(1, 1), padding=(1, 1), groups=8)
            (norm): GroupNorm(8, 256, eps=1e-05, affine=True)
            (activate): LeakyReLU(negative_slope=0.2, inplace=True)
          )
          (1): GroupConv2d(
            (conv): Conv2d(128, 256, kernel_size=(5, 5), stride=(1, 1), padding=(2, 2), groups=8)
            (norm): GroupNorm(8, 256, eps=1e-05, affine=True)
            (activate): LeakyReLU(negative_slope=0.2, inplace=True)
          )
          (2): GroupConv2d(
            (conv): Conv2d(128, 256, kernel_size=(7, 7), stride=(1, 1), padding=(3, 3), groups=8)
            (norm): GroupNorm(8, 256, eps=1e-05, affine=True)
            (activate): LeakyReLU(negative_slope=0.2, inplace=True)
          )
          (3): GroupConv2d(
            (conv): Conv2d(128, 256, kernel_size=(11, 11), stride=(1, 1), padding=(5, 5), groups=8)
            (norm): GroupNorm(8, 256, eps=1e-05, affine=True)
            (activate): LeakyReLU(negative_slope=0.2, inplace=True)
          )
        )
      )
      (5): gInception_ST(
        (conv1): Conv2d(256, 128, kernel_size=(1, 1), stride=(1, 1))
        (layers): Sequential(
          (0): GroupConv2d(
            (conv): Conv2d(128, 256, kernel_size=(3, 3), stride=(1, 1), padding=(1, 1), groups=8)
            (norm): GroupNorm(8, 256, eps=1e-05, affine=True)
            (activate): LeakyReLU(negative_slope=0.2, inplace=True)
          )
          (1): GroupConv2d(
            (conv): Conv2d(128, 256, kernel_size=(5, 5), stride=(1, 1), padding=(2, 2), groups=8)
            (norm): GroupNorm(8, 256, eps=1e-05, affine=True)
            (activate): LeakyReLU(negative_slope=0.2, inplace=True)
          )
          (2): GroupConv2d(
            (conv): Conv2d(128, 256, kernel_size=(7, 7), stride=(1, 1), padding=(3, 3), groups=8)
            (norm): GroupNorm(8, 256, eps=1e-05, affine=True)
            (activate): LeakyReLU(negative_slope=0.2, inplace=True)
          )
          (3): GroupConv2d(
            (conv): Conv2d(128, 256, kernel_size=(11, 11), stride=(1, 1), padding=(5, 5), groups=8)
            (norm): GroupNorm(8, 256, eps=1e-05, affine=True)
            (activate): LeakyReLU(negative_slope=0.2, inplace=True)
          )
        )
      )
      (6): gInception_ST(
        (conv1): Conv2d(256, 128, kernel_size=(1, 1), stride=(1, 1))
        (layers): Sequential(
          (0): GroupConv2d(
            (conv): Conv2d(128, 256, kernel_size=(3, 3), stride=(1, 1), padding=(1, 1), groups=8)
            (norm): GroupNorm(8, 256, eps=1e-05, affine=True)
            (activate): LeakyReLU(negative_slope=0.2, inplace=True)
          )
          (1): GroupConv2d(
            (conv): Conv2d(128, 256, kernel_size=(5, 5), stride=(1, 1), padding=(2, 2), groups=8)
            (norm): GroupNorm(8, 256, eps=1e-05, affine=True)
            (activate): LeakyReLU(negative_slope=0.2, inplace=True)
          )
          (2): GroupConv2d(
            (conv): Conv2d(128, 256, kernel_size=(7, 7), stride=(1, 1), padding=(3, 3), groups=8)
            (norm): GroupNorm(8, 256, eps=1e-05, affine=True)
            (activate): LeakyReLU(negative_slope=0.2, inplace=True)
          )
          (3): GroupConv2d(
            (conv): Conv2d(128, 256, kernel_size=(11, 11), stride=(1, 1), padding=(5, 5), groups=8)
            (norm): GroupNorm(8, 256, eps=1e-05, affine=True)
            (activate): LeakyReLU(negative_slope=0.2, inplace=True)
          )
        )
      )
      (7): gInception_ST(
        (conv1): Conv2d(256, 128, kernel_size=(1, 1), stride=(1, 1))
        (layers): Sequential(
          (0): GroupConv2d(
            (conv): Conv2d(128, 256, kernel_size=(3, 3), stride=(1, 1), padding=(1, 1), groups=8)
            (norm): GroupNorm(8, 256, eps=1e-05, affine=True)
            (activate): LeakyReLU(negative_slope=0.2, inplace=True)
          )
          (1): GroupConv2d(
            (conv): Conv2d(128, 256, kernel_size=(5, 5), stride=(1, 1), padding=(2, 2), groups=8)
            (norm): GroupNorm(8, 256, eps=1e-05, affine=True)
            (activate): LeakyReLU(negative_slope=0.2, inplace=True)
          )
          (2): GroupConv2d(
            (conv): Conv2d(128, 256, kernel_size=(7, 7), stride=(1, 1), padding=(3, 3), groups=8)
            (norm): GroupNorm(8, 256, eps=1e-05, affine=True)
            (activate): LeakyReLU(negative_slope=0.2, inplace=True)
          )
          (3): GroupConv2d(
            (conv): Conv2d(128, 256, kernel_size=(11, 11), stride=(1, 1), padding=(5, 5), groups=8)
            (norm): GroupNorm(8, 256, eps=1e-05, affine=True)
            (activate): LeakyReLU(negative_slope=0.2, inplace=True)
          )
        )
      )
    )
    (dec): Sequential(
      (0): gInception_ST(
        (conv1): Conv2d(256, 128, kernel_size=(1, 1), stride=(1, 1))
        (layers): Sequential(
          (0): GroupConv2d(
            (conv): Conv2d(128, 256, kernel_size=(3, 3), stride=(1, 1), padding=(1, 1), groups=8)
            (norm): GroupNorm(8, 256, eps=1e-05, affine=True)
            (activate): LeakyReLU(negative_slope=0.2, inplace=True)
          )
          (1): GroupConv2d(
            (conv): Conv2d(128, 256, kernel_size=(5, 5), stride=(1, 1), padding=(2, 2), groups=8)
            (norm): GroupNorm(8, 256, eps=1e-05, affine=True)
            (activate): LeakyReLU(negative_slope=0.2, inplace=True)
          )
          (2): GroupConv2d(
            (conv): Conv2d(128, 256, kernel_size=(7, 7), stride=(1, 1), padding=(3, 3), groups=8)
            (norm): GroupNorm(8, 256, eps=1e-05, affine=True)
            (activate): LeakyReLU(negative_slope=0.2, inplace=True)
          )
          (3): GroupConv2d(
            (conv): Conv2d(128, 256, kernel_size=(11, 11), stride=(1, 1), padding=(5, 5), groups=8)
            (norm): GroupNorm(8, 256, eps=1e-05, affine=True)
            (activate): LeakyReLU(negative_slope=0.2, inplace=True)
          )
        )
      )
      (1): gInception_ST(
        (conv1): Conv2d(512, 128, kernel_size=(1, 1), stride=(1, 1))
        (layers): Sequential(
          (0): GroupConv2d(
            (conv): Conv2d(128, 256, kernel_size=(3, 3), stride=(1, 1), padding=(1, 1), groups=8)
            (norm): GroupNorm(8, 256, eps=1e-05, affine=True)
            (activate): LeakyReLU(negative_slope=0.2, inplace=True)
          )
          (1): GroupConv2d(
            (conv): Conv2d(128, 256, kernel_size=(5, 5), stride=(1, 1), padding=(2, 2), groups=8)
            (norm): GroupNorm(8, 256, eps=1e-05, affine=True)
            (activate): LeakyReLU(negative_slope=0.2, inplace=True)
          )
          (2): GroupConv2d(
            (conv): Conv2d(128, 256, kernel_size=(7, 7), stride=(1, 1), padding=(3, 3), groups=8)
            (norm): GroupNorm(8, 256, eps=1e-05, affine=True)
            (activate): LeakyReLU(negative_slope=0.2, inplace=True)
          )
          (3): GroupConv2d(
            (conv): Conv2d(128, 256, kernel_size=(11, 11), stride=(1, 1), padding=(5, 5), groups=8)
            (norm): GroupNorm(8, 256, eps=1e-05, affine=True)
            (activate): LeakyReLU(negative_slope=0.2, inplace=True)
          )
        )
      )
      (2): gInception_ST(
        (conv1): Conv2d(512, 128, kernel_size=(1, 1), stride=(1, 1))
        (layers): Sequential(
          (0): GroupConv2d(
            (conv): Conv2d(128, 256, kernel_size=(3, 3), stride=(1, 1), padding=(1, 1), groups=8)
            (norm): GroupNorm(8, 256, eps=1e-05, affine=True)
            (activate): LeakyReLU(negative_slope=0.2, inplace=True)
          )
          (1): GroupConv2d(
            (conv): Conv2d(128, 256, kernel_size=(5, 5), stride=(1, 1), padding=(2, 2), groups=8)
            (norm): GroupNorm(8, 256, eps=1e-05, affine=True)
            (activate): LeakyReLU(negative_slope=0.2, inplace=True)
          )
          (2): GroupConv2d(
            (conv): Conv2d(128, 256, kernel_size=(7, 7), stride=(1, 1), padding=(3, 3), groups=8)
            (norm): GroupNorm(8, 256, eps=1e-05, affine=True)
            (activate): LeakyReLU(negative_slope=0.2, inplace=True)
          )
          (3): GroupConv2d(
            (conv): Conv2d(128, 256, kernel_size=(11, 11), stride=(1, 1), padding=(5, 5), groups=8)
            (norm): GroupNorm(8, 256, eps=1e-05, affine=True)
            (activate): LeakyReLU(negative_slope=0.2, inplace=True)
          )
        )
      )
      (3): gInception_ST(
        (conv1): Conv2d(512, 128, kernel_size=(1, 1), stride=(1, 1))
        (layers): Sequential(
          (0): GroupConv2d(
            (conv): Conv2d(128, 256, kernel_size=(3, 3), stride=(1, 1), padding=(1, 1), groups=8)
            (norm): GroupNorm(8, 256, eps=1e-05, affine=True)
            (activate): LeakyReLU(negative_slope=0.2, inplace=True)
          )
          (1): GroupConv2d(
            (conv): Conv2d(128, 256, kernel_size=(5, 5), stride=(1, 1), padding=(2, 2), groups=8)
            (norm): GroupNorm(8, 256, eps=1e-05, affine=True)
            (activate): LeakyReLU(negative_slope=0.2, inplace=True)
          )
          (2): GroupConv2d(
            (conv): Conv2d(128, 256, kernel_size=(7, 7), stride=(1, 1), padding=(3, 3), groups=8)
            (norm): GroupNorm(8, 256, eps=1e-05, affine=True)
            (activate): LeakyReLU(negative_slope=0.2, inplace=True)
          )
          (3): GroupConv2d(
            (conv): Conv2d(128, 256, kernel_size=(11, 11), stride=(1, 1), padding=(5, 5), groups=8)
            (norm): GroupNorm(8, 256, eps=1e-05, affine=True)
            (activate): LeakyReLU(negative_slope=0.2, inplace=True)
          )
        )
      )
      (4): gInception_ST(
        (conv1): Conv2d(512, 128, kernel_size=(1, 1), stride=(1, 1))
        (layers): Sequential(
          (0): GroupConv2d(
            (conv): Conv2d(128, 256, kernel_size=(3, 3), stride=(1, 1), padding=(1, 1), groups=8)
            (norm): GroupNorm(8, 256, eps=1e-05, affine=True)
            (activate): LeakyReLU(negative_slope=0.2, inplace=True)
          )
          (1): GroupConv2d(
            (conv): Conv2d(128, 256, kernel_size=(5, 5), stride=(1, 1), padding=(2, 2), groups=8)
            (norm): GroupNorm(8, 256, eps=1e-05, affine=True)
            (activate): LeakyReLU(negative_slope=0.2, inplace=True)
          )
          (2): GroupConv2d(
            (conv): Conv2d(128, 256, kernel_size=(7, 7), stride=(1, 1), padding=(3, 3), groups=8)
            (norm): GroupNorm(8, 256, eps=1e-05, affine=True)
            (activate): LeakyReLU(negative_slope=0.2, inplace=True)
          )
          (3): GroupConv2d(
            (conv): Conv2d(128, 256, kernel_size=(11, 11), stride=(1, 1), padding=(5, 5), groups=8)
            (norm): GroupNorm(8, 256, eps=1e-05, affine=True)
            (activate): LeakyReLU(negative_slope=0.2, inplace=True)
          )
        )
      )
      (5): gInception_ST(
        (conv1): Conv2d(512, 128, kernel_size=(1, 1), stride=(1, 1))
        (layers): Sequential(
          (0): GroupConv2d(
            (conv): Conv2d(128, 256, kernel_size=(3, 3), stride=(1, 1), padding=(1, 1), groups=8)
            (norm): GroupNorm(8, 256, eps=1e-05, affine=True)
            (activate): LeakyReLU(negative_slope=0.2, inplace=True)
          )
          (1): GroupConv2d(
            (conv): Conv2d(128, 256, kernel_size=(5, 5), stride=(1, 1), padding=(2, 2), groups=8)
            (norm): GroupNorm(8, 256, eps=1e-05, affine=True)
            (activate): LeakyReLU(negative_slope=0.2, inplace=True)
          )
          (2): GroupConv2d(
            (conv): Conv2d(128, 256, kernel_size=(7, 7), stride=(1, 1), padding=(3, 3), groups=8)
            (norm): GroupNorm(8, 256, eps=1e-05, affine=True)
            (activate): LeakyReLU(negative_slope=0.2, inplace=True)
          )
          (3): GroupConv2d(
            (conv): Conv2d(128, 256, kernel_size=(11, 11), stride=(1, 1), padding=(5, 5), groups=8)
            (norm): GroupNorm(8, 256, eps=1e-05, affine=True)
            (activate): LeakyReLU(negative_slope=0.2, inplace=True)
          )
        )
      )
      (6): gInception_ST(
        (conv1): Conv2d(512, 128, kernel_size=(1, 1), stride=(1, 1))
        (layers): Sequential(
          (0): GroupConv2d(
            (conv): Conv2d(128, 256, kernel_size=(3, 3), stride=(1, 1), padding=(1, 1), groups=8)
            (norm): GroupNorm(8, 256, eps=1e-05, affine=True)
            (activate): LeakyReLU(negative_slope=0.2, inplace=True)
          )
          (1): GroupConv2d(
            (conv): Conv2d(128, 256, kernel_size=(5, 5), stride=(1, 1), padding=(2, 2), groups=8)
            (norm): GroupNorm(8, 256, eps=1e-05, affine=True)
            (activate): LeakyReLU(negative_slope=0.2, inplace=True)
          )
          (2): GroupConv2d(
            (conv): Conv2d(128, 256, kernel_size=(7, 7), stride=(1, 1), padding=(3, 3), groups=8)
            (norm): GroupNorm(8, 256, eps=1e-05, affine=True)
            (activate): LeakyReLU(negative_slope=0.2, inplace=True)
          )
          (3): GroupConv2d(
            (conv): Conv2d(128, 256, kernel_size=(11, 11), stride=(1, 1), padding=(5, 5), groups=8)
            (norm): GroupNorm(8, 256, eps=1e-05, affine=True)
            (activate): LeakyReLU(negative_slope=0.2, inplace=True)
          )
        )
      )
      (7): gInception_ST(
        (conv1): Conv2d(512, 128, kernel_size=(1, 1), stride=(1, 1))
        (layers): Sequential(
          (0): GroupConv2d(
            (conv): Conv2d(128, 384, kernel_size=(3, 3), stride=(1, 1), padding=(1, 1), groups=8)
            (norm): GroupNorm(8, 384, eps=1e-05, affine=True)
            (activate): LeakyReLU(negative_slope=0.2, inplace=True)
          )
          (1): GroupConv2d(
            (conv): Conv2d(128, 384, kernel_size=(5, 5), stride=(1, 1), padding=(2, 2), groups=8)
            (norm): GroupNorm(8, 384, eps=1e-05, affine=True)
            (activate): LeakyReLU(negative_slope=0.2, inplace=True)
          )
          (2): GroupConv2d(
            (conv): Conv2d(128, 384, kernel_size=(7, 7), stride=(1, 1), padding=(3, 3), groups=8)
            (norm): GroupNorm(8, 384, eps=1e-05, affine=True)
            (activate): LeakyReLU(negative_slope=0.2, inplace=True)
          )
          (3): GroupConv2d(
            (conv): Conv2d(128, 384, kernel_size=(11, 11), stride=(1, 1), padding=(5, 5), groups=8)
            (norm): GroupNorm(8, 384, eps=1e-05, affine=True)
            (activate): LeakyReLU(negative_slope=0.2, inplace=True)
          )
        )
      )
    )
  )
)
| module                 | #parameters or shape   | #flops     |
|:-----------------------|:-----------------------|:-----------|
| model                  | 14.666M                | 8.027G     |
…
