Model info:
SimVP_Model(
  (enc): Encoder(
    (enc): Sequential(
      (0): ConvSC(
        (conv): BasicConv2d(
          (conv): Conv2d(1, 32, kernel_size=(3, 3), stride=(1, 1), padding=(1, 1))
          (norm): GroupNorm(2, 32, eps=1e-05, affine=True)
          (act): SiLU()
        )
      )
      (1): ConvSC(
        (conv): BasicConv2d(
          (conv): Conv2d(32, 32, kernel_size=(3, 3), stride=(2, 2), padding=(1, 1))
          (norm): GroupNorm(2, 32, eps=1e-05, affine=True)
          (act): SiLU()
        )
      )
    )
  )
  (dec): Decoder(
    (dec): Sequential(
      (0): ConvSC(
        (conv): BasicConv2d(
          (conv): Sequential(
            (0): Conv2d(32, 128, kernel_size=(3, 3), stride=(1, 1), padding=(1, 1))
            (1): PixelShuffle(upscale_factor=2)
          )
          (norm): GroupNorm(2, 32, eps=1e-05, affine=True)
          (act): SiLU()
        )
      )
      (1): ConvSC(
        (conv): BasicConv2d(
          (conv): Conv2d(32, 32, kernel_size=(3, 3), stride=(1, 1), padding=(1, 1))
          (norm): GroupNorm(2, 32, eps=1e-05, affine=True)
          (act): SiLU()
        )
      )
    )
    (readout): Conv2d(32, 1, kernel_size=(1, 1), stride=(1, 1))
  )
  (hid): MidMetaNet(
    (enc): Sequential(
      (0): MetaBlock(
        (block): ConvNeXtSubBlock(
          (conv_dw): Conv2d(384, 384, kernel_size=(7, 7), stride=(1, 1), padding=(3, 3), groups=384)
          (norm): LayerNorm2d((384,), eps=1e-06, elementwise_affine=True)
          (mlp): ConvMlp(
            (fc1): Conv2d(384, 3072, kernel_size=(1, 1), stride=(1, 1))
            (norm): Identity()
            (act): GELU()
            (drop): Dropout(p=0.0, inplace=False)
            (fc2): Conv2d(3072, 384, kernel_size=(1, 1), stride=(1, 1))
          )
          (drop_path): DropPath(drop_prob=0.010)
        )
        (reduction): Conv2d(384, 256, kernel_size=(1, 1), stride=(1, 1))
      )
      (1): MetaBlock(
        (block): ConvNeXtSubBlock(
          (conv_dw): Conv2d(256, 256, kernel_size=(7, 7), stride=(1, 1), padding=(3, 3), groups=256)
          (norm): LayerNorm2d((256,), eps=1e-06, elementwise_affine=True)
          (mlp): ConvMlp(
            (fc1): Conv2d(256, 2048, kernel_size=(1, 1), stride=(1, 1))
            (norm): Identity()
            (act): GELU()
            (drop): Dropout(p=0.0, inplace=False)
            (fc2): Conv2d(2048, 256, kernel_size=(1, 1), stride=(1, 1))
          )
          (drop_path): DropPath(drop_prob=0.023)
        )
      )
      (2): MetaBlock(
        (block): ConvNeXtSubBlock(
          (conv_dw): Conv2d(256, 256, kernel_size=(7, 7), stride=(1, 1), padding=(3, 3), groups=256)
          (norm): LayerNorm2d((256,), eps=1e-06, elementwise_affine=True)
          (mlp): ConvMlp(
            (fc1): Conv2d(256, 2048, kernel_size=(1, 1), stride=(1, 1))
            (norm): Identity()
            (act): GELU()
            (drop): Dropout(p=0.0, inplace=False)
            (fc2): Conv2d(2048, 256, kernel_size=(1, 1), stride=(1, 1))
          )
          (drop_path): DropPath(drop_prob=0.036)
        )
      )
      (3): MetaBlock(
        (block): ConvNeXtSubBlock(
          (conv_dw): Conv2d(256, 256, kernel_size=(7, 7), stride=(1, 1), padding=(3, 3), groups=256)
          (norm): LayerNorm2d((256,), eps=1e-06, elementwise_affine=True)
          (mlp): ConvMlp(
            (fc1): Conv2d(256, 2048, kernel_size=(1, 1), stride=(1, 1))
            (norm): Identity()
            (act): GELU()
            (drop): Dropout(p=0.0, inplace=False)
            (fc2): Conv2d(2048, 256, kernel_size=(1, 1), stride=(1, 1))
          )
          (drop_path): DropPath(drop_prob=0.049)
        )
      )
      (4): MetaBlock(
        (block): ConvNeXtSubBlock(
          (conv_dw): Conv2d(256, 256, kernel_size=(7, 7), stride=(1, 1), padding=(3, 3), groups=256)
          (norm): LayerNorm2d((256,), eps=1e-06, elementwise_affine=True)
          (mlp): ConvMlp(
            (fc1): Conv2d(256, 2048, kernel_size=(1, 1), stride=(1, 1))
            (norm): Identity()
            (act): GELU()
            (drop): Dropout(p=0.0, inplace=False)
            (fc2): Conv2d(2048, 256, kernel_size=(1, 1), stride=(1, 1))
          )
          (drop_path): DropPath(drop_prob=0.061)
        )
      )
      (5): MetaBlock(
        (block): ConvNeXtSubBlock(
          (conv_dw): Conv2d(256, 256, kernel_size=(7, 7), stride=(1, 1), padding=(3, 3), groups=256)
          (norm): LayerNorm2d((256,), eps=1e-06, elementwise_affine=True)
          (mlp): ConvMlp(
            (fc1): Conv2d(256, 2048, kernel_size=(1, 1), stride=(1, 1))
            (norm): Identity()
            (act): GELU()
            (drop): Dropout(p=0.0, inplace=False)
            (fc2): Conv2d(2048, 256, kernel_size=(1, 1), stride=(1, 1))
          )
          (drop_path): DropPath(drop_prob=0.074)
        )
      )
      (6): MetaBlock(
        (block): ConvNeXtSubBlock(
          (conv_dw): Conv2d(256, 256, kernel_size=(7, 7), stride=(1, 1), padding=(3, 3), groups=256)
          (norm): LayerNorm2d((256,), eps=1e-06, elementwise_affine=True)
          (mlp): ConvMlp(
            (fc1): Conv2d(256, 2048, kernel_size=(1, 1), stride=(1, 1))
            (norm): Identity()
            (act): GELU()
            (drop): Dropout(p=0.0, inplace=False)
            (fc2): Conv2d(2048, 256, kernel_size=(1, 1), stride=(1, 1))
          )
          (drop_path): DropPath(drop_prob=0.087)
        )
      )
      (7): MetaBlock(
        (block): ConvNeXtSubBlock(
          (conv_dw): Conv2d(256, 256, kernel_size=(7, 7), stride=(1, 1), padding=(3, 3), groups=256)
          (norm): LayerNorm2d((256,), eps=1e-06, elementwise_affine=True)
          (mlp): ConvMlp(
            (fc1): Conv2d(256, 2048, kernel_size=(1, 1), stride=(1, 1))
            (norm): Identity()
            (act): GELU()
            (drop): Dropout(p=0.0, inplace=False)
            (fc2): Conv2d(2048, 256, kernel_size=(1, 1), stride=(1, 1))
          )
          (drop_path): DropPath(drop_prob=0.100)
        )
        (reduction): Conv2d(256, 384, kernel_size=(1, 1), stride=(1, 1))
      )
    )
  )
)
| module                     | #parameters or shape   | #flops     |
|:---------------------------|:-----------------------|:-----------|
| model                      | 10.088M                | 5.657G     |
|  enc.enc                   |  9.696K                |  68.616M   |
|   enc.enc.0.conv           |   0.384K               |   11.01M   |
…
