Model info:
SimVP_Model(
  (enc): Encoder(
    (enc): Sequential(
      (0): ConvSC(
        (conv): BasicConv2d(
          (conv): Conv2d(1, 32, kernel_size=(3, 3), stride=(1, 1), padding=(1, 1))
          (norm): GroupNorm(2, 32, eps=1e-05, affine=True)
          (act): SiLU()
        )
      )
      (1): ConvSC(
        (conv): BasicConv2d(
          (conv): Conv2d(32, 32, kernel_size=(3, 3), stride=(2, 2), padding=(1, 1))
          (norm): GroupNorm(2, 32, eps=1e-05, affine=True)
          (act): SiLU()
        )
      )
    )
  )
  (dec): Decoder(
    (dec): Sequential(
      (0): ConvSC(
        (conv): BasicConv2d(
          (conv): Sequential(
            (0): Conv2d(32, 128, kernel_size=(3, 3), stride=(1, 1), padding=(1, 1))
            (1): PixelShuffle(upscale_factor=2)
          )
          (norm): GroupNorm(2, 32, eps=1e-05, affine=True)
          (act): SiLU()
        )
      )
      (1): ConvSC(
        (conv): BasicConv2d(
          (conv): Conv2d(32, 32, kernel_size=(3, 3), stride=(1, 1), padding=(1, 1))
          (norm): GroupNorm(2, 32, eps=1e-05, affine=True)
          (act): SiLU()
        )
      )
    )
    (readout): Conv2d(32, 1, kernel_size=(1, 1), stride=(1, 1))
  )
  (hid): MidMetaNet(
    (enc): Sequential(
      (0): MetaBlock(
        (block): MogaSubBlock(
          (norm1): BatchNorm2d(384, eps=1e-05, momentum=0.1, affine=True, track_running_stats=True)
          (attn): MultiOrderGatedAggregation(
            (proj_1): Conv2d(384, 384, kernel_size=(1, 1), stride=(1, 1))
            (gate): Conv2d(384, 384, kernel_size=(1, 1), stride=(1, 1))
            (value): MultiOrderDWConv(
              (DW_conv0): Conv2d(384, 384, kernel_size=(5, 5), stride=(1, 1), padding=(2, 2), groups=384)
              (DW_conv1): Conv2d(144, 144, kernel_size=(5, 5), stride=(1, 1), padding=(4, 4), dilation=(2, 2), groups=144)
              (DW_conv2): Conv2d(192, 192, kernel_size=(7, 7), stride=(1, 1), padding=(9, 9), dilation=(3, 3), groups=192)
              (PW_conv): Conv2d(384, 384, kernel_size=(1, 1), stride=(1, 1))
            )
            (proj_2): Conv2d(384, 384, kernel_size=(1, 1), stride=(1, 1))
            (act_value): SiLU()
            (act_gate): SiLU()
          )
          (drop_path): DropPath(drop_prob=0.010)
          (norm2): BatchNorm2d(384, eps=1e-05, momentum=0.1, affine=True, track_running_stats=True)
          (mlp): ChannelAggregationFFN(
            (fc1): Conv2d(384, 3072, kernel_size=(1, 1), stride=(1, 1))
            (dwconv): Conv2d(3072, 3072, kernel_size=(3, 3), stride=(1, 1), padding=(1, 1), groups=3072)
            (act): GELU(approximate='none')
            (fc2): Conv2d(3072, 384, kernel_size=(1, 1), stride=(1, 1))
            (drop): Dropout(p=0.0, inplace=False)
            (decompose): Conv2d(3072, 1, kernel_size=(1, 1), stride=(1, 1))
            (decompose_act): GELU(approximate='none')
          )
        )
        (reduction): Conv2d(384, 256, kernel_size=(1, 1), stride=(1, 1))
      )
      (1): MetaBlock(
        (block): MogaSubBlock(
          (norm1): BatchNorm2d(256, eps=1e-05, momentum=0.1, affine=True, track_running_stats=True)
          (attn): MultiOrderGatedAggregation(
            (proj_1): Conv2d(256, 256, kernel_size=(1, 1), stride=(1, 1))
            (gate): Conv2d(256, 256, kernel_size=(1, 1), stride=(1, 1))
            (value): MultiOrderDWConv(
              (DW_conv0): Conv2d(256, 256, kernel_size=(5, 5), stride=(1, 1), padding=(2, 2), groups=256)
              (DW_conv1): Conv2d(96, 96, kernel_size=(5, 5), stride=(1, 1), padding=(4, 4), dilation=(2, 2), groups=96)
              (DW_conv2): Conv2d(128, 128, kernel_size=(7, 7), stride=(1, 1), padding=(9, 9), dilation=(3, 3), groups=128)
              (PW_conv): Conv2d(256, 256, kernel_size=(1, 1), stride=(1, 1))
            )
            (proj_2): Conv2d(256, 256, kernel_size=(1, 1), stride=(1, 1))
            (act_value): SiLU()
            (act_gate): SiLU()
          )
          (drop_path): DropPath(drop_prob=0.037)
          (norm2): BatchNorm2d(256, eps=1e-05, momentum=0.1, affine=True, track_running_stats=True)
          (mlp): ChannelAggregationFFN(
            (fc1): Conv2d(256, 2048, kernel_size=(1, 1), stride=(1, 1))
            (dwconv): Conv2d(2048, 2048, kernel_size=(3, 3), stride=(1, 1), padding=(1, 1), groups=2048)
            (act): GELU(approximate='none')
            (fc2): Conv2d(2048, 256, kernel_size=(1, 1), stride=(1, 1))
            (drop): Dropout(p=0.0, inplace=False)
            (decompose): Conv2d(2048, 1, kernel_size=(1, 1), stride=(1, 1))
            (decompose_act): GELU(approximate='none')
          )
        )
      )
      (2): MetaBlock(
        (block): MogaSubBlock(
          (norm1): BatchNorm2d(256, eps=1e-05, momentum=0.1, affine=True, track_running_stats=True)
          (attn): MultiOrderGatedAggregation(
            (proj_1): Conv2d(256, 256, kernel_size=(1, 1), stride=(1, 1))
            (gate): Conv2d(256, 256, kernel_size=(1, 1), stride=(1, 1))
            (value): MultiOrderDWConv(
              (DW_conv0): Conv2d(256, 256, kernel_size=(5, 5), stride=(1, 1), padding=(2, 2), groups=256)
              (DW_conv1): Conv2d(96, 96, kernel_size=(5, 5), stride=(1, 1), padding=(4, 4), dilation=(2, 2), groups=96)
              (DW_conv2): Conv2d(128, 128, kernel_size=(7, 7), stride=(1, 1), padding=(9, 9), dilation=(3, 3), groups=128)
              (PW_conv): Conv2d(256, 256, kernel_size=(1, 1), stride=(1, 1))
            )
            (proj_2): Conv2d(256, 256, kernel_size=(1, 1), stride=(1, 1))
            (act_value): SiLU()
            (act_gate): SiLU()
          )
          (drop_path): DropPath(drop_prob=0.064)
          (norm2): BatchNorm2d(256, eps=1e-05, momentum=0.1, affine=True, track_running_stats=True)
          (mlp): ChannelAggregationFFN(
            (fc1): Conv2d(256, 2048, kernel_size=(1, 1), stride=(1, 1))
            (dwconv): Conv2d(2048, 2048, kernel_size=(3, 3), stride=(1, 1), padding=(1, 1), groups=2048)
            (act): GELU(approximate='none')
            (fc2): Conv2d(2048, 256, kernel_size=(1, 1), stride=(1, 1))
            (drop): Dropout(p=0.0, inplace=False)
            (decompose): Conv2d(2048, 1, kernel_size=(1, 1), stride=(1, 1))
            (decompose_act): GELU(approximate='none')
          )
        )
      )
      (3): MetaBlock(
        (block): MogaSubBlock(
          (norm1): BatchNorm2d(256, eps=1e-05, momentum=0.1, affine=True, track_running_stats=True)
          (attn): MultiOrderGatedAggregation(
            (proj_1): Conv2d(256, 256, kernel_size=(1, 1), stride=(1, 1))
            (gate): Conv2d(256, 256, kernel_size=(1, 1), stride=(1, 1))
            (value): MultiOrderDWConv(
              (DW_conv0): Conv2d(256, 256, kernel_size=(5, 5), stride=(1, 1), padding=(2, 2), groups=256)
              (DW_conv1): Conv2d(96, 96, kernel_size=(5, 5), stride=(1, 1), padding=(4, 4), dilation=(2, 2), groups=96)
              (DW_conv2): Conv2d(128, 128, kernel_size=(7, 7), stride=(1, 1), padding=(9, 9), dilation=(3, 3), groups=128)
              (PW_conv): Conv2d(256, 256, kernel_size=(1, 1), stride=(1, 1))
            )
            (proj_2): Conv2d(256, 256, kernel_size=(1, 1), stride=(1, 1))
            (act_value): SiLU()
            (act_gate): SiLU()
          )
          (drop_path): DropPath(drop_prob=0.091)
          (norm2): BatchNorm2d(256, eps=1e-05, momentum=0.1, affine=True, track_running_stats=True)
          (mlp): ChannelAggregationFFN(
            (fc1): Conv2d(256, 2048, kernel_size=(1, 1), stride=(1, 1))
            (dwconv): Conv2d(2048, 2048, kernel_size=(3, 3), stride=(1, 1), padding=(1, 1), groups=2048)
            (act): GELU(approximate='none')
            (fc2): Conv2d(2048, 256, kernel_size=(1, 1), stride=(1, 1))
            (drop): Dropout(p=0.0, inplace=False)
            (decompose): Conv2d(2048, 1, kernel_size=(1, 1), stride=(1, 1))
            (decompose_act): GELU(approximate='none')
          )
        )
      )
      (4): MetaBlock(
        (block): MogaSubBlock(
          (norm1): BatchNorm2d(256, eps=1e-05, momentum=0.1, affine=True, track_running_stats=True)
          (attn): MultiOrderGatedAggregation(
            (proj_1): Conv2d(256, 256, kernel_size=(1, 1), stride=(1, 1))
            (gate): Conv2d(256, 256, kernel_size=(1, 1), stride=(1, 1))
            (value): MultiOrderDWConv(
              (DW_conv0): Conv2d(256, 256, kernel_size=(5, 5), stride=(1, 1), padding=(2, 2), groups=256)
              (DW_conv1): Conv2d(96, 96, kernel_size=(5, 5), stride=(1, 1), padding=(4, 4), dilation=(2, 2), groups=96)
              (DW_conv2): Conv2d(128, 128, kernel_size=(7, 7), stride=(1, 1), padding=(9, 9), dilation=(3, 3), groups=128)
              (PW_conv): Conv2d(256, 256, kernel_size=(1, 1), stride=(1, 1))
            )
            (proj_2): Conv2d(256, 256, kernel_size=(1, 1), stride=(1, 1))
            (act_value): SiLU()
            (act_gate): SiLU()
          )
          (drop_path): DropPath(drop_prob=0.119)
          (norm2): BatchNorm2d(256, eps=1e-05, momentum=0.1, affine=True, track_running_stats=True)
          (mlp): ChannelAggregationFFN(
            (fc1): Conv2d(256, 2048, kernel_size=(1, 1), stride=(1, 1))
            (dwconv): Conv2d(2048, 2048, kernel_size=(3, 3), stride=(1, 1), padding=(1, 1), groups=2048)
            (act): GELU(approximate='none')
            (fc2): Conv2d(2048, 256, kernel_size=(1, 1), stride=(1, 1))
            (drop): Dropout(p=0.0, inplace=False)
            (decompose): Conv2d(2048, 1, kernel_size=(1, 1), stride=(1, 1))
            (decompose_act): GELU(approximate='none')
          )
        )
      )
      (5): MetaBlock(
        (block): MogaSubBlock(
          (norm1): BatchNorm2d(256, eps=1e-05, momentum=0.1, affine=True, track_running_stats=True)
          (attn): MultiOrderGatedAggregation(
            (proj_1): Conv2d(256, 256, kernel_size=(1, 1), stride=(1, 1))
            (gate): Conv2d(256, 256, kernel_size=(1, 1), stride=(1, 1))
            (value): MultiOrderDWConv(
              (DW_conv0): Conv2d(256, 256, kernel_size=(5, 5), stride=(1, 1), padding=(2, 2), groups=256)
              (DW_conv1): Conv2d(96, 96, kernel_size=(5, 5), stride=(1, 1), padding=(4, 4), dilation=(2, 2), groups=96)
              (DW_conv2): Conv2d(128, 128, kernel_size=(7, 7), stride=(1, 1), padding=(9, 9), dilation=(3, 3), groups=128)
              (PW_conv): Conv2d(256, 256, kernel_size=(1, 1), stride=(1, 1))
            )
            (proj_2): Conv2d(256, 256, kernel_size=(1, 1), stride=(1, 1))
            (act_value): SiLU()
            (act_gate): SiLU()
          )
          (drop_path): DropPath(drop_prob=0.146)
          (norm2): BatchNorm2d(256, eps=1e-05, momentum=0.1, affine=True, track_running_stats=True)
          (mlp): ChannelAggregationFFN(
            (fc1): Conv2d(256, 2048, kernel_size=(1, 1), stride=(1, 1))
            (dwconv): Conv2d(2048, 2048, kernel_size=(3, 3), stride=(1, 1), padding=(1, 1), groups=2048)
            (act): GELU(approximate='none')
            (fc2): Conv2d(2048, 256, kernel_size=(1, 1), stride=(1, 1))
            (drop): Dropout(p=0.0, inplace=False)
            (decompose): Conv2d(2048, 1, kernel_size=(1, 1), stride=(1, 1))
            (decompose_act): GELU(approximate='none')
          )
        )
      )
      (6): MetaBlock(
        (block): MogaSubBlock(
          (norm1): BatchNorm2d(256, eps=1e-05, momentum=0.1, affine=True, track_running_stats=True)
          (attn): MultiOrderGatedAggregation(
            (proj_1): Conv2d(256, 256, kernel_size=(1, 1), stride=(1, 1))
            (gate): Conv2d(256, 256, kernel_size=(1, 1), stride=(1, 1))
            (value): MultiOrderDWConv(
              (DW_conv0): Conv2d(256, 256, kernel_size=(5, 5), stride=(1, 1), padding=(2, 2), groups=256)
              (DW_conv1): Conv2d(96, 96, kernel_size=(5, 5), stride=(1, 1), padding=(4, 4), dilation=(2, 2), groups=96)
              (DW_conv2): Conv2d(128, 128, kernel_size=(7, 7), stride=(1, 1), padding=(9, 9), dilation=(3, 3), groups=128)
              (PW_conv): Conv2d(256, 256, kernel_size=(1, 1), stride=(1, 1))
            )
            (proj_2): Conv2d(256, 256, kernel_size=(1, 1), stride=(1, 1))
            (act_value): SiLU()
            (act_gate): SiLU()
          )
          (drop_path): DropPath(drop_prob=0.173)
          (norm2): BatchNorm2d(256, eps=1e-05, momentum=0.1, affine=True, track_running_stats=True)
          (mlp): ChannelAggregationFFN(
            (fc1): Conv2d(256, 2048, kernel_size=(1, 1), stride=(1, 1))
            (dwconv): Conv2d(2048, 2048, kernel_size=(3, 3), stride=(1, 1), padding=(1, 1), groups=2048)
            (act): GELU(approximate='none')
            (fc2): Conv2d(2048, 256, kernel_size=(1, 1), stride=(1, 1))
            (drop): Dropout(p=0.0, inplace=False)
            (decompose): Conv2d(2048, 1, kernel_size=(1, 1), stride=(1, 1))
            (decompose_act): GELU(approximate='none')
          )
        )
      )
      (7): MetaBlock(
        (block): MogaSubBlock(
          (norm1): BatchNorm2d(256, eps=1e-05, momentum=0.1, affine=True, track_running_stats=True)
          (attn): MultiOrderGatedAggregation(
            (proj_1): Conv2d(256, 256, kernel_size=(1, 1), stride=(1, 1))
            (gate): Conv2d(256, 256, kernel_size=(1, 1), stride=(1, 1))
            (value): MultiOrderDWConv(
              (DW_conv0): Conv2d(256, 256, kernel_size=(5, 5), stride=(1, 1), padding=(2, 2), groups=256)
              (DW_conv1): Conv2d(96, 96, kernel_size=(5, 5), stride=(1, 1), padding=(4, 4), dilation=(2, 2), groups=96)
              (DW_conv2): Conv2d(128, 128, kernel_size=(7, 7), stride=(1, 1), padding=(9, 9), dilation=(3, 3), groups=128)
              (PW_conv): Conv2d(256, 256, kernel_size=(1, 1), stride=(1, 1))
            )
            (proj_2): Conv2d(256, 256, kernel_size=(1, 1), stride=(1, 1))
            (act_value): SiLU()
            (act_gate): SiLU()
          )
          (drop_path): DropPath(drop_prob=0.200)
          (norm2): BatchNorm2d(256, eps=1e-05, momentum=0.1, affine=True, track_running_stats=True)
          (mlp): ChannelAggregationFFN(
            (fc1): Conv2d(256, 2048, kernel_size=(1, 1), stride=(1, 1))
            (dwconv): Conv2d(2048, 2048, kernel_size=(3, 3), stride=(1, 1), padding=(1, 1), groups=2048)
            (act): GELU(approximate='none')
            (fc2): Conv2d(2048, 256, kernel_size=(1, 1), stride=(1, 1))
            (drop): Dropout(p=0.0, inplace=False)
            (decompose): Conv2d(2048, 1, kernel_size=(1, 1), stride=(1, 1))
            (decompose_act): GELU(approximate='none')
          )
        )
        (reduction): Conv2d(256, 384, kernel_size=(1, 1), stride=(1, 1))
      )
    )
  )
)
| module                           | #parameters or shape   | #flops     |
|:---------------------------------|:-----------------------|:-----------|
| model                            | 12.762M                | 7.005G     |
|  enc.enc                         |  9.696K                |  68.616M   |
|   enc.enc.0.conv                 |   0.384K               |   11.01M   |
…
