Model info:
SimVP_Model(
  (enc): Encoder(
    (enc): Sequential(
      (0): ConvSC(
        (conv): BasicConv2d(
          (conv): Conv2d(1, 32, kernel_size=(3, 3), stride=(1, 1), padding=(1, 1))
          (norm): GroupNorm(2, 32, eps=1e-05, affine=True)
          (act): SiLU()
        )
      )
      (1): ConvSC(
        (conv): BasicConv2d(
          (conv): Conv2d(32, 32, kernel_size=(3, 3), stride=(2, 2), padding=(1, 1))
          (norm): GroupNorm(2, 32, eps=1e-05, affine=True)
          (act): SiLU()
        )
      )
    )
  )
  (dec): Decoder(
    (dec): Sequential(
      (0): ConvSC(
        (conv): BasicConv2d(
          (conv): Sequential(
            (0): Conv2d(32, 128, kernel_size=(3, 3), stride=(1, 1), padding=(1, 1))
            (1): PixelShuffle(upscale_factor=2)
          )
          (norm): GroupNorm(2, 32, eps=1e-05, affine=True)
          (act): SiLU()
        )
      )
      (1): ConvSC(
        (conv): BasicConv2d(
          (conv): Conv2d(32, 32, kernel_size=(3, 3), stride=(1, 1), padding=(1, 1))
          (norm): GroupNorm(2, 32, eps=1e-05, affine=True)
          (act): SiLU()
        )
      )
    )
    (readout): Conv2d(32, 1, kernel_size=(1, 1), stride=(1, 1))
  )
  (hid): MidMetaNet(
    (enc): Sequential(
      (0): MetaBlock(
        (block): HorNetSubBlock(
          (norm1): LayerNorm()
          (gnconv): gnconv(
            (proj_in): Conv2d(384, 768, kernel_size=(1, 1), stride=(1, 1))
            (dwconv): Conv2d(720, 720, kernel_size=(7, 7), stride=(1, 1), padding=(3, 3), groups=720)
            (proj_out): Conv2d(384, 384, kernel_size=(1, 1), stride=(1, 1))
            (pws): ModuleList(
              (0): Conv2d(48, 96, kernel_size=(1, 1), stride=(1, 1))
              (1): Conv2d(96, 192, kernel_size=(1, 1), stride=(1, 1))
              (2): Conv2d(192, 384, kernel_size=(1, 1), stride=(1, 1))
            )
          )
          (norm2): LayerNorm()
          (pwconv1): Linear(in_features=384, out_features=3072, bias=True)
          (act): GELU(approximate='none')
          (pwconv2): Linear(in_features=3072, out_features=384, bias=True)
          (drop_path): DropPath(drop_prob=0.010)
        )
        (reduction): Conv2d(384, 256, kernel_size=(1, 1), stride=(1, 1))
      )
      (1): MetaBlock(
        (block): HorNetSubBlock(
          (norm1): LayerNorm()
          (gnconv): gnconv(
            (proj_in): Conv2d(256, 512, kernel_size=(1, 1), stride=(1, 1))
            (dwconv): Conv2d(480, 480, kernel_size=(7, 7), stride=(1, 1), padding=(3, 3), groups=480)
            (proj_out): Conv2d(256, 256, kernel_size=(1, 1), stride=(1, 1))
            (pws): ModuleList(
              (0): Conv2d(32, 64, kernel_size=(1, 1), stride=(1, 1))
              (1): Conv2d(64, 128, kernel_size=(1, 1), stride=(1, 1))
              (2): Conv2d(128, 256, kernel_size=(1, 1), stride=(1, 1))
            )
          )
          (norm2): LayerNorm()
          (pwconv1): Linear(in_features=256, out_features=2048, bias=True)
          (act): GELU(approximate='none')
          (pwconv2): Linear(in_features=2048, out_features=256, bias=True)
          (drop_path): DropPath(drop_prob=0.023)
        )
      )
      (2): MetaBlock(
        (block): HorNetSubBlock(
          (norm1): LayerNorm()
          (gnconv): gnconv(
            (proj_in): Conv2d(256, 512, kernel_size=(1, 1), stride=(1, 1))
            (dwconv): Conv2d(480, 480, kernel_size=(7, 7), stride=(1, 1), padding=(3, 3), groups=480)
            (proj_out): Conv2d(256, 256, kernel_size=(1, 1), stride=(1, 1))
            (pws): ModuleList(
              (0): Conv2d(32, 64, kernel_size=(1, 1), stride=(1, 1))
              (1): Conv2d(64, 128, kernel_size=(1, 1), stride=(1, 1))
              (2): Conv2d(128, 256, kernel_size=(1, 1), stride=(1, 1))
            )
          )
          (norm2): LayerNorm()
          (pwconv1): Linear(in_features=256, out_features=2048, bias=True)
          (act): GELU(approximate='none')
          (pwconv2): Linear(in_features=2048, out_features=256, bias=True)
          (drop_path): DropPath(drop_prob=0.036)
        )
      )
      (3): MetaBlock(
        (block): HorNetSubBlock(
          (norm1): LayerNorm()
          (gnconv): gnconv(
            (proj_in): Conv2d(256, 512, kernel_size=(1, 1), stride=(1, 1))
            (dwconv): Conv2d(480, 480, kernel_size=(7, 7), stride=(1, 1), padding=(3, 3), groups=480)
            (proj_out): Conv2d(256, 256, kernel_size=(1, 1), stride=(1, 1))
            (pws): ModuleList(
              (0): Conv2d(32, 64, kernel_size=(1, 1), stride=(1, 1))
              (1): Conv2d(64, 128, kernel_size=(1, 1), stride=(1, 1))
              (2): Conv2d(128, 256, kernel_size=(1, 1), stride=(1, 1))
            )
          )
          (norm2): LayerNorm()
          (pwconv1): Linear(in_features=256, out_features=2048, bias=True)
          (act): GELU(approximate='none')
          (pwconv2): Linear(in_features=2048, out_features=256, bias=True)
          (drop_path): DropPath(drop_prob=0.049)
        )
      )
      (4): MetaBlock(
        (block): HorNetSubBlock(
          (norm1): LayerNorm()
          (gnconv): gnconv(
            (proj_in): Conv2d(256, 512, kernel_size=(1, 1), stride=(1, 1))
            (dwconv): Conv2d(480, 480, kernel_size=(7, 7), stride=(1, 1), padding=(3, 3), groups=480)
            (proj_out): Conv2d(256, 256, kernel_size=(1, 1), stride=(1, 1))
            (pws): ModuleList(
              (0): Conv2d(32, 64, kernel_size=(1, 1), stride=(1, 1))
              (1): Conv2d(64, 128, kernel_size=(1, 1), stride=(1, 1))
              (2): Conv2d(128, 256, kernel_size=(1, 1), stride=(1, 1))
            )
          )
          (norm2): LayerNorm()
          (pwconv1): Linear(in_features=256, out_features=2048, bias=True)
          (act): GELU(approximate='none')
          (pwconv2): Linear(in_features=2048, out_features=256, bias=True)
          (drop_path): DropPath(drop_prob=0.061)
        )
      )
      (5): MetaBlock(
        (block): HorNetSubBlock(
          (norm1): LayerNorm()
          (gnconv): gnconv(
            (proj_in): Conv2d(256, 512, kernel_size=(1, 1), stride=(1, 1))
            (dwconv): Conv2d(480, 480, kernel_size=(7, 7), stride=(1, 1), padding=(3, 3), groups=480)
            (proj_out): Conv2d(256, 256, kernel_size=(1, 1), stride=(1, 1))
            (pws): ModuleList(
              (0): Conv2d(32, 64, kernel_size=(1, 1), stride=(1, 1))
              (1): Conv2d(64, 128, kernel_size=(1, 1), stride=(1, 1))
              (2): Conv2d(128, 256, kernel_size=(1, 1), stride=(1, 1))
            )
          )
          (norm2): LayerNorm()
          (pwconv1): Linear(in_features=256, out_features=2048, bias=True)
          (act): GELU(approximate='none')
          (pwconv2): Linear(in_features=2048, out_features=256, bias=True)
          (drop_path): DropPath(drop_prob=0.074)
        )
      )
      (6): MetaBlock(
        (block): HorNetSubBlock(
          (norm1): LayerNorm()
          (gnconv): gnconv(
            (proj_in): Conv2d(256, 512, kernel_size=(1, 1), stride=(1, 1))
            (dwconv): Conv2d(480, 480, kernel_size=(7, 7), stride=(1, 1), padding=(3, 3), groups=480)
            (proj_out): Conv2d(256, 256, kernel_size=(1, 1), stride=(1, 1))
            (pws): ModuleList(
              (0): Conv2d(32, 64, kernel_size=(1, 1), stride=(1, 1))
              (1): Conv2d(64, 128, kernel_size=(1, 1), stride=(1, 1))
              (2): Conv2d(128, 256, kernel_size=(1, 1), stride=(1, 1))
            )
          )
          (norm2): LayerNorm()
          (pwconv1): Linear(in_features=256, out_features=2048, bias=True)
          (act): GELU(approximate='none')
          (pwconv2): Linear(in_features=2048, out_features=256, bias=True)
          (drop_path): DropPath(drop_prob=0.087)
        )
      )
      (7): MetaBlock(
        (block): HorNetSubBlock(
          (norm1): LayerNorm()
          (gnconv): gnconv(
            (proj_in): Conv2d(256, 512, kernel_size=(1, 1), stride=(1, 1))
            (dwconv): Conv2d(480, 480, kernel_size=(7, 7), stride=(1, 1), padding=(3, 3), groups=480)
            (proj_out): Conv2d(256, 256, kernel_size=(1, 1), stride=(1, 1))
            (pws): ModuleList(
              (0): Conv2d(32, 64, kernel_size=(1, 1), stride=(1, 1))
              (1): Conv2d(64, 128, kernel_size=(1, 1), stride=(1, 1))
              (2): Conv2d(128, 256, kernel_size=(1, 1), stride=(1, 1))
            )
          )
          (norm2): LayerNorm()
          (pwconv1): Linear(in_features=256, out_features=2048, bias=True)
          (act): GELU(approximate='none')
          (pwconv2): Linear(in_features=2048, out_features=256, bias=True)
          (drop_path): DropPath(drop_prob=0.100)
        )
        (reduction): Conv2d(256, 384, kernel_size=(1, 1), stride=(1, 1))
      )
    )
  )
)
| module                     | #parameters or shape   | #flops     |
|:---------------------------|:-----------------------|:-----------|
| model                      | 12.416M                | 6.84G      |
|  enc.enc                   |  9.696K                |  68.616M   |
|   enc.enc.0.conv           |   0.384K               |   11.01M   |
…
