Model info:
SimVP_Model(
  (enc): Encoder(
    (enc): Sequential(
      (0): ConvSC(
        (conv): BasicConv2d(
          (conv): Conv2d(1, 32, kernel_size=(3, 3), stride=(1, 1), padding=(1, 1))
          (norm): GroupNorm(2, 32, eps=1e-05, affine=True)
          (act): SiLU()
        )
      )
      (1): ConvSC(
        (conv): BasicConv2d(
          (conv): Conv2d(32, 32, kernel_size=(3, 3), stride=(2, 2), padding=(1, 1))
          (norm): GroupNorm(2, 32, eps=1e-05, affine=True)
          (act): SiLU()
        )
      )
    )
  )
  (dec): Decoder(
    (dec): Sequential(
      (0): ConvSC(
        (conv): BasicConv2d(
          (conv): Sequential(
            (0): Conv2d(32, 128, kernel_size=(3, 3), stride=(1, 1), padding=(1, 1))
            (1): PixelShuffle(upscale_factor=2)
          )
          (norm): GroupNorm(2, 32, eps=1e-05, affine=True)
          (act): SiLU()
        )
      )
      (1): ConvSC(
        (conv): BasicConv2d(
          (conv): Conv2d(32, 32, kernel_size=(3, 3), stride=(1, 1), padding=(1, 1))
          (norm): GroupNorm(2, 32, eps=1e-05, affine=True)
          (act): SiLU()
        )
      )
    )
    (readout): Conv2d(32, 1, kernel_size=(1, 1), stride=(1, 1))
  )
  (hid): MidMetaNet(
    (enc): Sequential(
      (0): MetaBlock(
        (block): MLPMixerSubBlock(
          (norm1): LayerNorm((384,), eps=1e-06, elementwise_affine=True)
          (mlp_tokens): Mlp(
            (fc1): Linear(in_features=512, out_features=192, bias=True)
            (act): GELU(approximate='none')
            (drop1): Dropout(p=0.0, inplace=False)
            (fc2): Linear(in_features=192, out_features=512, bias=True)
            (drop2): Dropout(p=0.0, inplace=False)
          )
          (drop_path): DropPath(drop_prob=0.010)
          (norm2): LayerNorm((384,), eps=1e-06, elementwise_affine=True)
          (mlp_channels): Mlp(
            (fc1): Linear(in_features=384, out_features=3072, bias=True)
            (act): GELU(approximate='none')
            (drop1): Dropout(p=0.0, inplace=False)
            (fc2): Linear(in_features=3072, out_features=384, bias=True)
            (drop2): Dropout(p=0.0, inplace=False)
          )
        )
        (reduction): Conv2d(384, 256, kernel_size=(1, 1), stride=(1, 1))
      )
      (1): MetaBlock(
        (block): MLPMixerSubBlock(
          (norm1): LayerNorm((256,), eps=1e-06, elementwise_affine=True)
          (mlp_tokens): Mlp(
            (fc1): Linear(in_features=512, out_features=128, bias=True)
            (act): GELU(approximate='none')
            (drop1): Dropout(p=0.0, inplace=False)
            (fc2): Linear(in_features=128, out_features=512, bias=True)
            (drop2): Dropout(p=0.0, inplace=False)
          )
          (drop_path): DropPath(drop_prob=0.023)
          (norm2): LayerNorm((256,), eps=1e-06, elementwise_affine=True)
          (mlp_channels): Mlp(
            (fc1): Linear(in_features=256, out_features=2048, bias=True)
            (act): GELU(approximate='none')
            (drop1): Dropout(p=0.0, inplace=False)
            (fc2): Linear(in_features=2048, out_features=256, bias=True)
            (drop2): Dropout(p=0.0, inplace=False)
          )
        )
      )
      (2): MetaBlock(
        (block): MLPMixerSubBlock(
          (norm1): LayerNorm((256,), eps=1e-06, elementwise_affine=True)
          (mlp_tokens): Mlp(
            (fc1): Linear(in_features=512, out_features=128, bias=True)
            (act): GELU(approximate='none')
            (drop1): Dropout(p=0.0, inplace=False)
            (fc2): Linear(in_features=128, out_features=512, bias=True)
            (drop2): Dropout(p=0.0, inplace=False)
          )
          (drop_path): DropPath(drop_prob=0.036)
          (norm2): LayerNorm((256,), eps=1e-06, elementwise_affine=True)
          (mlp_channels): Mlp(
            (fc1): Linear(in_features=256, out_features=2048, bias=True)
            (act): GELU(approximate='none')
            (drop1): Dropout(p=0.0, inplace=False)
            (fc2): Linear(in_features=2048, out_features=256, bias=True)
            (drop2): Dropout(p=0.0, inplace=False)
          )
        )
      )
      (3): MetaBlock(
        (block): MLPMixerSubBlock(
          (norm1): LayerNorm((256,), eps=1e-06, elementwise_affine=True)
          (mlp_tokens): Mlp(
            (fc1): Linear(in_features=512, out_features=128, bias=True)
            (act): GELU(approximate='none')
            (drop1): Dropout(p=0.0, inplace=False)
            (fc2): Linear(in_features=128, out_features=512, bias=True)
            (drop2): Dropout(p=0.0, inplace=False)
          )
          (drop_path): DropPath(drop_prob=0.049)
          (norm2): LayerNorm((256,), eps=1e-06, elementwise_affine=True)
          (mlp_channels): Mlp(
            (fc1): Linear(in_features=256, out_features=2048, bias=True)
            (act): GELU(approximate='none')
            (drop1): Dropout(p=0.0, inplace=False)
            (fc2): Linear(in_features=2048, out_features=256, bias=True)
            (drop2): Dropout(p=0.0, inplace=False)
          )
        )
      )
      (4): MetaBlock(
        (block): MLPMixerSubBlock(
          (norm1): LayerNorm((256,), eps=1e-06, elementwise_affine=True)
          (mlp_tokens): Mlp(
            (fc1): Linear(in_features=512, out_features=128, bias=True)
            (act): GELU(approximate='none')
            (drop1): Dropout(p=0.0, inplace=False)
            (fc2): Linear(in_features=128, out_features=512, bias=True)
            (drop2): Dropout(p=0.0, inplace=False)
          )
          (drop_path): DropPath(drop_prob=0.061)
          (norm2): LayerNorm((256,), eps=1e-06, elementwise_affine=True)
          (mlp_channels): Mlp(
            (fc1): Linear(in_features=256, out_features=2048, bias=True)
            (act): GELU(approximate='none')
            (drop1): Dropout(p=0.0, inplace=False)
            (fc2): Linear(in_features=2048, out_features=256, bias=True)
            (drop2): Dropout(p=0.0, inplace=False)
          )
        )
      )
      (5): MetaBlock(
        (block): MLPMixerSubBlock(
          (norm1): LayerNorm((256,), eps=1e-06, elementwise_affine=True)
          (mlp_tokens): Mlp(
            (fc1): Linear(in_features=512, out_features=128, bias=True)
            (act): GELU(approximate='none')
            (drop1): Dropout(p=0.0, inplace=False)
            (fc2): Linear(in_features=128, out_features=512, bias=True)
            (drop2): Dropout(p=0.0, inplace=False)
          )
          (drop_path): DropPath(drop_prob=0.074)
          (norm2): LayerNorm((256,), eps=1e-06, elementwise_affine=True)
          (mlp_channels): Mlp(
            (fc1): Linear(in_features=256, out_features=2048, bias=True)
            (act): GELU(approximate='none')
            (drop1): Dropout(p=0.0, inplace=False)
            (fc2): Linear(in_features=2048, out_features=256, bias=True)
            (drop2): Dropout(p=0.0, inplace=False)
          )
        )
      )
      (6): MetaBlock(
        (block): MLPMixerSubBlock(
          (norm1): LayerNorm((256,), eps=1e-06, elementwise_affine=True)
          (mlp_tokens): Mlp(
            (fc1): Linear(in_features=512, out_features=128, bias=True)
            (act): GELU(approximate='none')
            (drop1): Dropout(p=0.0, inplace=False)
            (fc2): Linear(in_features=128, out_features=512, bias=True)
            (drop2): Dropout(p=0.0, inplace=False)
          )
          (drop_path): DropPath(drop_prob=0.087)
          (norm2): LayerNorm((256,), eps=1e-06, elementwise_affine=True)
          (mlp_channels): Mlp(
            (fc1): Linear(in_features=256, out_features=2048, bias=True)
            (act): GELU(approximate='none')
            (drop1): Dropout(p=0.0, inplace=False)
            (fc2): Linear(in_features=2048, out_features=256, bias=True)
            (drop2): Dropout(p=0.0, inplace=False)
          )
        )
      )
      (7): MetaBlock(
        (block): MLPMixerSubBlock(
          (norm1): LayerNorm((256,), eps=1e-06, elementwise_affine=True)
          (mlp_tokens): Mlp(
            (fc1): Linear(in_features=512, out_features=128, bias=True)
            (act): GELU(approximate='none')
            (drop1): Dropout(p=0.0, inplace=False)
            (fc2): Linear(in_features=128, out_features=512, bias=True)
            (drop2): Dropout(p=0.0, inplace=False)
          )
          (drop_path): DropPath(drop_prob=0.100)
          (norm2): LayerNorm((256,), eps=1e-06, elementwise_affine=True)
          (mlp_channels): Mlp(
            (fc1): Linear(in_features=256, out_features=2048, bias=True)
            (act): GELU(approximate='none')
            (drop1): Dropout(p=0.0, inplace=False)
            (fc2): Linear(in_features=2048, out_features=256, bias=True)
            (drop2): Dropout(p=0.0, inplace=False)
          )
        )
        (reduction): Conv2d(256, 384, kernel_size=(1, 1), stride=(1, 1))
      )
    )
  )
)
| module                          | #parameters or shape   | #flops     |
|:--------------------------------|:-----------------------|:-----------|
| model                           | 11.1M                  | 5.918G     |
|  enc.enc                        |  9.696K                |  68.616M   |
|   enc.enc.0.conv                |   0.384K               |   11.01M   |
…
